app/src/main/ml/recommendation_model.tflite (tflite, 138096 bytes, 14 tensors)

model_8/embedding_71/embedding_lookup/352410 f4 [2, 10]
-0.27401486 0.06917805 0.017104581 0.017423235 -0.045072798 -0.0125460485 0.008476472 0.0005872864
-0.05094943 0.5601931 -0.015001456 0.0071885306 0.009704914 -0.016443877 -0.0045891777 0.013749601
-0.00065071054 0.018467015 0.2283237 0.017499791
00000000: ad4b 8cbe 39ad 8d3d e81e 8c3c 2cbb 8e3c
00000010: 419e 38bd f18d 4dbc e7e0 0a3c 20f4 193a
00000020: 59b0 50bd d168 0f3f abc8 75bc c48d eb3b
00000030: 5c01 1f3c 4fb5 86bc d060 96bb 0246 613c
00000040: 7294 2aba 2348 973c b0cd 693e b95b 8f3c

model_8/embedding_70/embedding_lookup/352416 f4 [2, 10]
-0.035975643 -0.050202314 -0.21695793 -0.100430615 -0.0072587235 0.18773478 0.035953104 0.09686436
-0.28646654 0.15024938 -0.17317079 -0.0079422975 -0.012458248 -0.0035082537 0.0013889964 -0.012094896
0.0021065944 -0.019992307 0.015249694 -0.020786963
00000000: 325b 13bd f1a0 4dbd 382a 5ebe 91ae cdbd
00000010: 96da edbb 8c3d 403e 9043 133d d260 c63d
00000020: beab 92be f9da 193e af53 31be 6920 02bc
00000030: ae1d 4cbc bbea 65bb fc0e b63a ac29 46bc
00000040: ca0e 0a3b e8c6 a3bc dad9 793c 6c49 aabc

model_8/embedding_69/embedding_lookup/352422 f4 [2, 10]
0.19845575 0.2946098 -0.16069618 0.005720391 -0.12386646 0.0019867215 -0.20378654 -0.2501434
0.0723282 0.0113924695 0.01788372 0.002849924 0.1949286 0.009945741 0.007621827 0.004999107
-0.009110625 0.025502551 -0.009234768 0.00426393
00000000: fc37 4b3e 19d7 963e 8a8d 24be 1e72 bb3b
00000010: b3ad fdbd a833 023b 6bad 50be cc12 80be
00000020: cf20 943d 7ba7 3a3c e180 923c cac5 3a3b
00000030: 5d9b 473e 76f3 223c 85c0 f93b 8dcf a33b
00000040: bb44 15bc baea d03c 6d4d 17bc 70b8 8b3b

model_8/embedding_68/embedding_lookup/352428 f4 [2, 10]
-0.059925124 -0.19721866 0.025946304 -0.01283242 -0.122445755 -0.01179403 0.15522428 0.2590929
-0.0481745 0.0917022 -0.019599345 0.010750929 0.27455497 0.030550744 0.015211254 0.0119641265
-0.019734152 0.0012903691 -0.010070217 -0.0021424268
00000000: 0c74 75bd b0f3 49be 588d d43c 123f 52bc
00000010: d7c4 fabd bf3b 41bc 1df3 1e3e d3a7 843e
00000020: a052 45bd 5dce bb3d ce8e a0bc aa24 303c
00000030: 7892 8c3e 8e45 fa3c a038 793c 2f05 443c
00000040: 84a9 a1bc 9a21 a93a 8dfd 24bc f567 0cbb

model_8/embedding_67/embedding_lookup/352434 f4 [2, 10]
-0.10937009 0.39953178 -0.23378307 0.12664913 0.029716004 0.014128624 0.022306453 -0.2822016
0.095405556 -0.09142665 0.00043794757 0.22936761 -0.018027306 -0.0027799476 -0.0022227543 -0.0046026027
0.0073142922 -0.0039005643 -0.00029601523 -0.014418814
00000000: 6dfd dfbd 6e8f cc3e d464 6fbe 4fb0 013e
00000010: fa6e f33c bf7b 673c 06bc b63c ba7c 90be
00000020: fd63 c33d e53d bbbd 549c e539 58df 6a3e
00000030: 00ae 93bc c82f 36bb a1ab 11bb 6ed1 96bb
00000040: bbac ef3b 9ca0 7fbb 7e32 9bb9 e43c 6cbc

model_8/embedding_66/embedding_lookup/352440 f4 [2, 10]
-0.016335636 0.15378529 0.10962367 0.33409804 -0.12077689 -0.0043967054 0.10548204 -0.0013253575
-0.036506943 0.13832967 -0.008442967 -0.0063899457 -0.007359577 0.017124558 -0.007964247 0.0022759568
-0.004849346 0.16860434 -0.02489505 -0.011709203
00000000: 50d2 85bc e479 1d3e 6082 e03d e60e ab3e
00000010: e059 f7bd 3d12 90bb f806 d83d 9eb7 adba
00000020: 4e88 15bd 4ba6 0d3e 5f54 0abc c062 d1bb
00000030: 9b28 f1bb cd48 8c3c 797c 02bc 3828 153b
00000040: 43e7 9ebb 9ea6 2c3e b4f0 cbbc f5d7 3fbc

model_8/embedding_65/embedding_lookup/352446 f4 [2, 10]
0.1420866 0.14285788 -0.04773899 0.06518168 0.0075432467 -0.023672648 0.02789583 -0.010533646
-0.004627704 0.016120842 0.020814925 -0.01109434 -0.0067777596 0.0040197265 0.012587597 -0.0053009754
0.008435933 0.1136555 -0.012529052 0.000132379
00000000: 267f 113e 5649 123e f689 43bd f97d 853d
00000010: 572d f73b 24ed c1bc cc85 e43c 5095 2cbc
00000020: ffa3 97bb db0f 843c 1084 aa3c 09c5 35bc
00000030: f817 debb e9b7 833b 353c 4e3c ceb3 adbb
00000040: de36 0a3c 37c4 e83d a746 4dbc 38cf 0a39

model_8/embedding_64/embedding_lookup/352452 f4 [2, 10]
-0.30440557 0.0072714025 0.09085347 -0.09793143 -0.46213385 -0.022070488 0.06974441 0.26160246
0.18446548 0.04308465 -0.025133833 0.01753835 -0.062133256 0.044319764 -0.010457627 0.0065872734
-0.013165764 0.009031164 -0.09613194 -0.0076695723
00000000: 0cdb 9bbe f244 ee3b 6211 ba3d 4690 c8bd
00000010: cf9c ecbe 2bcd b4bc 28d6 8e3d c2f0 853e
00000020: 85e4 3c3e 8879 303d 78e5 cdbc 96ac 8f3c
00000030: 717f 7ebd a488 353d 7756 2bbc 0eda d73b
00000040: 37b5 57bc 73f7 133c d3e0 c4bd 0951 fbbb

model_8/embedding_63/embedding_lookup/352458 f4 [2, 10]
-0.0022804337 -0.013833221 -0.055018894 0.27568844 -0.06461369 -0.13358259 0.015295632 0.17979063
-0.014952807 -0.040596902 0.025539404 0.11693913 0.28623772 -0.3507065 0.3032859 0.2941644
-0.058348574 -0.34888333 -0.012494578 0.27358022
00000000: 5473 15bb bca4 62bc 7e5b 61bd 0927 8d3e
00000010: 2f54 84bd e0c9 08be 889a 7a3c 091b 383e
00000020: 9efc 74bc f048 26bd 0338 d13c c87d ef3d
00000030: c08d 923e cd8f b3be 4a48 9b3e b79c 963e
00000040: eafe 6ebd d6a0 b2be 0fb6 4cbc b512 8c3e

model_8/embedding_62/embedding_lookup/352464 f4 [124, 10]
-0.3846036 -0.13192533 0.17277364 0.104841486 -0.12540707 -0.082558945 0.972825 -0.31139898
-0.11767869 -0.22707342 -0.6061085 -0.1868512 0.082433924 -0.05021934 -0.04695289 -0.07333599
0.42806762 -0.013444706 0.113531634 0.08754015 -0.27725103 0.06762517 0.09540105 0.1337964
-0.10380329 0.20464775 0.23798731 -0.07553495 -0.13130134 -0.03550696 -0.053206272 -0.36641556
0.3927892 0.22750206 -0.31452298 -0.23907523 0.36323887 -0.10044859 0.34650868 -0.11220412
-0.66820616 -0.058674827 0.065268695 -0.122905225 -0.030556237 0.34478596 0.4622443 -0.1634035
-0.02708497 -0.13878721 -0.44517148 0.099483095 -0.19451003 -0.23698378 0.20885518 0.5577181
-0.00576805 0.091019146 0.16837001 0.22100514 -0.7183616 -0.28263283 -0.17647189 -0.043966297
0.24919486 0.3314779 0.122579716 -0.2720317 0.099938914 -0.1094607 -0.09377641 0.19372967
0.20833804 0.15694167 -0.14136253 0.15936352 0.08646083 -0.17955832 0.039652828 0.0563427
-0.885519 -0.20490056 0.22907771 -0.21162456 -0.11100678 -0.32871237 0.9776037 -0.43197063
-0.14911744 -0.027517822 -0.0029787712 0.16644637 0.13672449 0.35952187 -0.2681395 -0.1230997
-0.010365916 0.13261822 -0.08906633 0.12290907 -0.17020564 0.1506372 -0.21824801 -0.31058145
0.25019956 0.012065234 0.1753313 0.017756315 -0.23532745 -0.032869887 0.06919093 0.20019579
-0.11677199 -0.069863886 0.06466057 0.20166272 -0.04988376 0.061169527 -0.03940112 0.013987336
-0.1846679 0.39123014 -0.18469022 -0.22202128 0.2849033 0.57784635 0.056459185 -0.3232491
-0.26481965 -0.2873266 0.21578611 -0.116857305 0.16003649 0.04138441 -0.14246044 -0.16316217
-0.11487542 0.11194032 -0.052580558 -0.17690916 0.07006725 -0.00075294485 -0.013712834 -0.0105164815
-0.07715605 -0.07406937 -0.065617085 -0.012026642 -0.05245754 0.014595711 -0.011992244 -0.03404285
-0.16860814 -0.09924661 0.12552014 -0.12943004 0.053713474 0.11071141 0.0020385361 0.014006435
-0.21670705 0.30725574 -0.40632772 -0.35376754 0.37264085 0.37568438 -0.22041863 -0.40191633
-0.1533699 -0.36902422 -0.020188423 0.15651731 -0.17906229 -0.20542565 0.10904397 0.052370843
-0.023514211 0.049953315 0.08649907 0.004987812 -0.004065942 0.0061692484 -0.031552948 -0.023338689
0.0030406602 -0.03975018 0.03250296 0.03946134 -0.009189915 0.04239087 -0.18193303 0.42605224
-0.028755585 -0.25044802 0.2005784 0.41007817 0.10027691 -0.27419254 -0.23617788 -0.22338864
-0.16366175 0.3241261 -0.09360977 -0.22168176 0.22268353 0.2230266 0.06425525 -0.28467128
-0.23833473 -0.21745968 -0.09283968 0.38453674 -0.007211052 -0.19289154 0.179626 0.5157967
-0.0054701767 -0.37596542 -0.31142312 -0.40902364 -0.10110802 0.5598611 -0.12216614 -0.20505798
0.1481055 0.36120346 0.083462335 -0.2626706 -0.29811502 -0.40946567 0.14500001 0.109463125
-0.23414372 -0.019888889 0.15381353 -0.114919774 0.020496605 0.058435608 -0.03051897 -0.099631466
0.13918675 -0.27094966 -0.4092795 0.22377954 0.20215939 -0.5230241 0.16776365 -0.37238473
-0.11766084 -0.41952187 -0.11336566 0.26580715 -0.26943034 -0.33265206 0.25973162 -0.07693194
00000000: c3ea c4be 6f17 07be 93eb 303e 22b7 d63d
00000010: b66a 00be aa14 a9bd 0f0b 793f b06f 9fbe
00000020: 8601 f1bd ef85 68be ed29 1bbf ec55 3fbe
00000030: 1ed3 a83d cbb2 4dbd ac51 40bd 2e31 96bd
00000040: ae2b db3e 2f47 5cbc 4683 e83d 4048 b33d
00000050: d9f3 8dbe 117f 8a3d a061 c33d ec01 093e
00000060: d296 d4bd 2e8f 513e f2b2 733e 11b2 9abd
00000070: dc73 06be bf6f 11bd d2ee 59bd d29a bbbe
00000080: ab1b c93e 4df6 683e 2809 a1be 23d0 74be
00000090: 72fa b93e feb7 cdbd 9669 b13e 46cb e5bd
000000a0: 8f0f 2bbf 0455 70bd 98ab 853d bcb5 fbbd
000000b0: 1351 fabc c987 b03e 49ab ec3e 3f53 27be
000000c0: 4de1 ddbc 3c1e 0ebe 84ed e3be cbbd cb3d
000000d0: a32d 47be e0ab 72be 22de 553e 9dc6 0e3f
000000e0: e901 bdbb 3f68 ba3d 3069 2c3e 2c4f 623e
000000f0: 8ce6 37bf 40b5 90be 0cb5 34be 0116 34bd
00000100: f02c 7f3e 79b7 a93e 130b fb3d bd47 8bbe
00000110: c6ac cc3d ee2c e0bd d90d c0bd 1261 463e
00000120: 9156 553e 51b5 203e 57c1 10be 3130 233e
00000130: 6012 b13d 23de 37be 016b 223d 9ac7 663d
00000140: 60b1 62bf 74d1 51be 5993 6a3e 1cb4 58be
00000150: 8657 e3bd fd4c a8be 3c44 7a3f 412b ddbe
00000160: 3eb2 18be 0e6d e1bc 7d37 43bb eb70 2a3e
00000170: 8101 0c3e 4013 b83e 9549 89be b21b fcbd
00000180: ced5 29bc 12cd 073e 6868 b6bd c0b7 fb3d
00000190: 634a 2ebe a340 1a3e 687c 5fbe 8804 9fbe
000001a0: 281a 803e 42ad 453c 0c8a 333e b175 913c
000001b0: aef9 70be 93a2 06bd f9b3 8d3d 2000 4d3e
000001c0: 2726 efbd cc14 8fbd c36c 843d ac80 4e3e
000001d0: ea52 4cbd e68c 7a3d 1263 21bd 242b 653c
000001e0: 9519 3dbe 514f c83e 6f1f 3dbe 8c59 63be
000001f0: d8de 913e bded 133f bf41 673d e880 a5be
00000200: 7196 87be 791c 93be 09f7 5c3e e252 efbd
00000210: 9be0 233e b382 293d 26e1 11be fc13 27be
00000220: ce43 ebbd f740 e53d b65e 57bd ad27 35be
00000230: 6b7f 8f3d 4661 45ba cbab 60bc 524d 2cbc
00000240: fe03 9ebd afb1 97bd 4062 86bd 650b 45bc
00000250: b8dd 56bd d922 6f3c 1e7b 44bc 8470 0bbd
00000260: 9da7 2cbe cf41 cbbd 5a88 003e 4f89 04be
00000270: a902 5c3d aabc e23d f698 053b 3f7b 653c
00000280: 74e8 5dbe a050 9d3e 300a d0be 0521 b5be
00000290: c8ca be3e b459 c03e 6cb5 61be fac7 cdbe
000002a0: 000d 1dbe bef0 bcbe 3162 a5bc 1346 203e
000002b0: 1b5c 37be 1a5b 52be 7252 df3d cf82 563d
000002c0: e0a0 c0bc d99b 4c3d 6d26 b13d cd70 a33b
000002d0: 983b 85bb 6827 ca3b aa3d 01bd c730 bfbc
000002e0: d045 473b 16d1 22bd d321 053d 37a2 213d
000002f0: 4c91 16bc 0da2 2d3d a74c 3abe 8523 da3e
00000300: d590 ebbc b93a 80be 6d64 4d3e c4f5 d13e
00000310: fb5d cd3d f762 8cbe 9dd8 71be febf 64be
00000320: f296 27be dbf3 a53e 7bb6 bfbd 8b00 63be
00000330: 2707 643e 1661 643e 4298 833d 6fc0 91be
00000340: 050e 74be c0ad 5ebe bb22 bebd 00e2 c43e
00000350: b04a ecbb 5c85 45be e1ef 373e 410b 043f
00000360: 2b3f b3bb 8a7e c0be da72 9fbe 8c6b d1be
00000370: b911 cfbd 0f53 0f3f 3e32 fabd b8fa 51be
00000380: f8a8 173e a9ef b83e 4dee aa3d c37c 86be
00000390: 88a2 98be 7ca5 d1be e27a 143e 342e e03d
000003a0: 5fc3 6fbe 06ee a2bc 4b81 1d3e 0f5b ebbd
000003b0: 7fe8 a73c 2d5a 6f3d eb02 fabc 950b ccbd
000003c0: f986 0e3e eab9 8abe 158d d1be 7726 653e
000003d0: df02 4f3e e8e4 05bf 3cca 2b3e 36a9 bebe
000003e0: 2bf8 f0bd 92cb d6be 412c e8bd e017 883e
000003f0: c6f2 89be 5f51 aabe 8bfb 843e 7e8e 9dbd

model_8/dense_18/BiasAdd/ReadVariableOp/resource f4 [507]
-1.18223 -1.112644 -1.1445616 -0.9674657 -0.9242521 -1.9104321 -0.67701197 -0.71127826
-1.3089935 -0.8958259 -1.1312912 -1.3036503 -1.7841655 -0.61765325 -0.82480246 -0.8812633
-1.0113411 -8.8868065 -1.6672903 -1.6923693 -1.0067675 -1.2626895 -8.8324175 -1.0046868
-0.83140635 -1.553345 -0.39142033 -0.95360756 -0.6472316 -0.59109974 -1.6700028 -1.4399252
-1.0977671 -0.87469745 -1.3031188 -1.02232 -0.6268289 -1.7805606 -0.022957355 -1.1596662
-1.0743482 -0.60893965 -1.0873746 -1.3229065 -0.38790053 -1.2367071 -1.0270914 -0.59297675
-0.8684413 -1.0321249 -0.52615166 -1.1035304 -0.7081785 -1.246293 -1.720678 -1.1772982
-1.6535357 -1.1636984 -1.6833802 -0.88861096 -1.1245309 -0.8179015 -1.1488528 -1.3288691
-1.7272471 -1.2470925 -0.18233876 -1.401673 -0.8240533 -1.0757679 -1.0763055 -0.85782504
-0.048878457 -0.8263915 -1.4618391 -0.64199525 -1.34179 -1.1272075 -0.82466376 -0.67770106
-1.0967951 -0.879741 -0.46227625 -1.6563758 -0.59423 -0.8350348 -0.7254027 -0.6918051
-1.7358397 -0.9598915 -1.5545026 -0.7963038 -1.0796877 -0.8628503 -1.4060781 -1.5176442
-1.1998715 -1.0952748 -1.5309147 -1.9021033 -0.97224027 -1.285407 -1.3129827 -1.3823823
-0.91357344 -1.2739489 -0.94404536 -2.1706178 -0.82781696 -1.2073026 -1.015993 -0.86185014
-1.7583596 -1.0998447 -1.3114463 -1.1892486 -1.9406583 -0.31331027 -1.1181077 -1.1805811
-0.8992807 -0.92741925 -1.1337527 -1.1125313 -0.3926452 -0.8789843 -1.0649145 -1.2968038
-0.88806635 -1.2754699 -0.80393004 -1.4259061 -1.0145564 -1.1195881 -1.2798201 -1.6031964
-0.9790731 -1.2301621 -1.250478 -1.228242 -2.1706378 -1.5564977 -2.013302 -1.5489266
-1.760448 -2.0649397 -0.9895907 -1.460888 -1.2449633 -1.0117422 -1.130816 -1.6044096
-1.3482099 -1.1974539 -1.6466163 -1.1434954 -1.663249 -1.1983606 -1.272143 -1.0780904
-8.80767 -1.4830645 -2.0519772 -8.832412 -1.0228102 -0.8929481 -1.2180526 -1.2576126
-1.1839944 -1.4846629 -0.72315603 -1.7465875 -1.5150504 -1.6594112 -0.74977124 -1.3317115
-0.9045142 -2.1200447 -1.1905504 -1.303392 -1.0285395 -0.7094525 -0.9437018 -0.9785802
-1.4669076 -0.6252462 -1.1206181 -0.79941905 -0.9780668 -0.9879067 -1.5488554 -0.8085109
-1.3950156 -0.6884076 -1.638678 -1.1240481 -1.385289 -0.8320815 -0.8835196 -1.2618253
-0.86383134 -1.3458817 -1.4251045 -1.4656833 -1.0299157 -0.72035503 -0.9405041 -1.0156769
-1.3316097 -1.526851 -1.765788 -0.9186704 -0.9628399 -1.2415034 -1.2380334 -1.3392775
-1.1993579 -1.3879308 -1.0623232 -1.5061057 -0.9644081 -1.4724114 -1.2100316 -0.7228667
-1.1188698 -0.9042333 -0.7552047 -0.9662376 -0.8879802 -1.2589688 -1.3589603 -0.9129177
-0.64028776 -0.9267359 -1.6160665 -0.94142073 -1.1503286 -0.8870181 -1.6959618 -1.0255337
-1.580574 -1.5893117 -1.4853368 -0.6712027 -1.1772026 -1.1327809 -0.55555457 -1.2247738
-0.5642623 -1.3728191 -1.1661441 -1.441997 -0.45037732 -0.5505588 -1.3534354 -0.5763444
00000000: 5053 97bf 1e6b 8ebf ff80 92bf d5ab 77bf
00000010: c99b 6cbf 0a89 f4bf a850 2dbf 5516 36bf
00000020: 198d a7bf d954 65bf 26ce 90bf 03de a6bf
00000030: 895f e4bf 861e 1ebf 4126 53bf 799a 61bf
00000040: a073 81bf 5c30 0ec1 c569 d5bf 8f9f d8bf
00000050: c2dd 80bf cf9f a1bf 9551 0dc1 9499 80bf
00000060: 0cd7 54bf 02d4 c6bf 3f68 c8be a01f 74bf
00000070: f8b0 25bf 5052 17bf a7c2 d5bf 784f b8bf
00000080: a283 8cbf 2cec 5fbf 99cc a6bf 62db 82bf
00000090: dc77 20bf 69e9 e3bf 1011 bcbc f16f 94bf
000000a0: 3e84 89bf 78e3 1bbf 172f 8bbf 0055 a9bf
000000b0: e69a c6be 6b4c 9ebf bb77 83bf 53cd 17bf
000000c0: 2b52 5ebf ab1c 84bf e0b1 06bf 7c40 8dbf
000000d0: 304b 35bf 8786 9fbf 2d3f dcbf b5b1 96bf
000000e0: 0fa7 d3bf 12f4 94bf 0179 d7bf 027c 63bf
000000f0: a1f0 8fbf fe61 51bf 9c0d 93bf 6218 aabf
00000100: 6f16 ddbf baa0 9fbf 03b7 3abe 056a b3bf
00000110: 28f5 52bf c3b2 89bf 61c4 89bf 6c9a 5bbf
00000120: c734 48bd 658e 53bf 8b1d bbbf cd59 24bf
00000130: c6bf abbf 5648 90bf 2a1d 53bf d17d 2dbf
00000140: c863 8cbf b536 61bf 79af ecbe 1f04 d4bf
00000150: 751f 18bf d7c4 55bf feb3 39bf 241a 31bf
00000160: ff2f debf 73bb 75bf f1f9 c6bf 91da 4bbf
00000170: 3533 8abf c2e3 5cbf 5efa b3bf 2a42 c2bf
00000180: 6495 99bf f731 8cbf 03f5 c3bf 1f78 f3bf
00000190: bde4 78bf 3788 a4bf d10f a8bf e7f1 b0bf
000001a0: f3df 69bf c210 a3bf f5ac 71bf 67eb 0ac0
000001b0: d0eb 53bf e488 9abf 0f0c 82bf 36a2 5cbf
000001c0: ed11 e1bf b6c7 8cbf 79dd a7bf 4c39 98bf
000001d0: 7e67 f8bf 346a a0be 271e 8fbf 481d 97bf
000001e0: 4337 66bf 596b 6dbf cf1e 91bf 6d67 8ebf
000001f0: cb08 c9be 1d05 61bf 1e4f 88bf abfd a5bf
00000200: 5158 63bf 9942 a3bf 5cce 4dbf 1784 b6bf
00000210: fcdc 81bf aa4e 8fbf 25d1 a3bf 8a35 cdbf
00000220: 89a4 7abf f475 9dbf aa0f a0bf 0937 9dbf
00000230: bbeb 0ac0 513b c7bf f1d9 00c0 3a43 c6bf
00000240: 5c56 e1bf f927 04c0 d155 7dbf 61fe babf
00000250: f55a 9fbf c580 81bf 94be 90bf 4b5d cdbf
00000260: 2492 acbf 2b46 99bf 53c4 d2bf 0f5e 92bf
00000270: 58e5 d4bf e163 99bf 95d5 a2bf defe 89bf
00000280: 37ec 0cc1 0fd5 bdbf 9853 03c0 8f51 0dc1
00000290: 72eb 82bf 3f98 64bf 26e9 9bbf 73f9 a0bf
000002a0: 218d 97bf 6f09 bebf c120 39bf 2e90 dfbf
000002b0: 2ced c1bf 9667 d4bf 02f1 3fbf 8675 aabf
000002c0: 3e8e 67bf d0ae 07c0 f563 98bf 8dd5 a6bf
000002d0: 2fa7 83bf ae9e 35bf 7196 71bf 3b84 7abf
000002e0: a1c3 bbbf 2310 20bf 6a70 8fbf baa6 4cbf
000002f0: 9662 7abf 74e7 7cbf e540 c6bf 92fa 4ebf
00000300: df8f b2bf 7b3b 30bf 33c0 d1bf cfe0 8fbf
00000310: 2651 b1bf 4b03 55bf 572e 62bf 7e83 a1bf
00000320: 0d24 5dbf da45 acbf d369 b6bf 839b bbbf
00000330: 47d4 83bf 3069 38bf e0c4 70bf b301 82bf
00000340: 3072 aabf db6f c3bf 5705 e2bf fc2d 6bbf
00000350: ad7c 76bf 95e9 9ebf e177 9ebf 726d abbf
00000360: 8f84 99bf b7a7 b1bf 35fa 87bf 12c8 c0bf
00000370: 73e3 76bf fa77 bcbf 51e2 9abf cb0d 39bf
00000380: 2037 8fbf d57b 67bf 1855 41bf 595b 77bf
00000390: ac52 63bf e425 a1bf 69f2 adbf f9b4 69bf
000003a0: e6e9 23bf 903e 6dbf 44db cebf f300 71bf
000003b0: f83d 93bf 9e13 63bf 4715 d9bf b044 83bf
000003c0: 4050 cabf 916e cbbf 841f bebf f1d3 2bbf
000003d0: 93ae 96bf f7fe 90bf d338 0ebf 63c5 9cbf
000003e0: 7e73 10bf 89b8 afbf 3644 95bf 5c93 b8bf
000003f0: db97 e6be 6cf1 0cbf 5f3d adbf 4e8b 13bf

model_8/dense_17/BiasAdd/ReadVariableOp/resource f4 [50]
-0.044038307 -0.12809303 -0.16669022 -0.18574117 -0.32246998 0.010290821 -0.2613999 -0.28380558
-0.2842913 -0.1470762 -0.2560234 -0.33337867 -0.2504247 -0.13626894 -0.24666972 -0.24172452
-0.24843296 -0.2570685 0.051743887 -0.13122548 -0.017837211 -0.24301511 -0.29535553 0.3676939
-0.34284386 -0.13895483 0.038755003 -0.2111351 -0.25775796 0.16166613 -0.11940187 -0.20490651
-0.36037892 -0.06148563 -0.30722284 -0.16230315 -0.07201854 0.055382177 -0.09922103 -0.32103732
-0.2311143 -0.20595288 -0.28283688 -0.2036564 0.16628613 -0.16821674 -0.28652626 -0.052503485
0.059595916 0.05015051
00000000: 8361 34bd d22a 03be d7b0 2abe ef32 3ebe
00000010: c91a a5be d59a 283c 35d6 85be f74e 91be
00000020: a18e 91be 259b 16be 8015 83be 9cb0 aabe
00000030: ab37 80be 168a 0bbe fd96 7cbe a286 77be
00000040: 3665 7ebe 7c9e 83be 66f1 533d f95f 06be
00000050: 581f 92bc f4d8 78be d738 97be 6042 bc3e
00000060: 3b89 afbe 2d4a 0ebe 91bd 1e3d cd33 58be
00000070: daf8 83be ce8b 253e f888 f4bd 03d3 51be
00000080: 9683 b8be 5bd8 7bbd 504c 9dbe cc32 26be
00000090: 757e 93bd 6cd8 623d 6534 cbbd 015f a4be
000000a0: 3aa9 6cbe 50e5 52be ffcf 90be 4e8b 50be
000000b0: e946 2a3e 0241 2cbe 92b3 92be e50d 57bd
000000c0: d91a 743d 9f6a 4d3d

model_8/dense_17/MatMul f4 [50, 100]
0.059870124 -0.7406999 0.60301983 0.57202697 -0.27251586 -0.14453563 -0.225162 0.16121225
0.61874324 0.10303212 0.11919484 0.38268512 0.48776922 -0.6975054 0.6091207 0.5122335
-0.44727698 -0.6626112 0.22340235 0.35120976 0.109621204 -0.1136558 0.20965642 -0.25160655
-0.12341831 0.054496273 -0.051227782 -0.017461225 0.074825995 0.10051781 0.16368659 -0.022860266
-0.12921247 -0.056480393 0.0131363515 0.1671435 -0.18974908 -0.0066992505 0.17822471 -0.031113029
0.17388864 0.15964305 0.027634172 0.039798476 -0.09444013 0.004346006 -0.081239864 -0.32850933
0.014928167 0.17416683 0.036803562 -0.061502777 -0.06735767 0.11629376 -0.09596419 0.10049297
0.14126436 -0.09823628 0.040239837 0.14549236 -0.10589969 -0.047264624 -0.31130612 -0.12920046
-0.033329267 0.04930369 0.01843857 0.2033086 -0.2168951 0.048718207 0.04427392 0.034922652
-0.28034624 -0.15797795 -0.035124972 0.11352282 -0.16926777 0.01593174 0.041857757 -0.33521876
0.2882383 0.018607384 -0.014071129 -0.2985608 0.048347834 0.2661781 0.15551493 0.0009938328
-0.064216994 -0.033754174 0.04472205 0.013471558 -0.19884995 -0.020038797 0.0876543 0.14998478
-0.10595174 0.035379294 -0.32897153 0.0013857038 -0.121330164 -0.30489486 -0.36776692 -0.22457142
-0.15098517 -0.7131296 -0.684142 0.35838816 0.18042606 0.1761328 0.22859369 -0.022239607
-0.05463744 -0.13886979 0.10656069 -0.031259604 -0.19751322 -0.21892269 0.098368995 0.12699513
-0.046793863 0.0021354978 -0.008512433 0.12155018 -0.029336698 0.08224139 -0.132161 -0.116766244
-0.09901258 0.08156314 -0.10516641 -0.17767923 -0.065853715 -0.00561623 0.09461846 -0.033185378
-0.1482808 -0.22573473 0.10504747 -0.1526588 0.22703776 -0.046361804 -0.10247101 -0.12436388
0.09908845 0.05632434 -0.21343532 -0.16181566 0.013920486 0.06923282 0.051878553 -0.11361063
0.05656607 0.085055046 0.13336584 -0.0892148 -0.03765199 -0.12630229 -0.11206836 0.026996406
-0.029005788 0.09512298 0.067765795 -0.027095709 0.00069078093 0.03405632 0.15779662 -0.1387978
-0.027540227 0.059207406 0.01482205 -0.25779265 -0.277726 -0.08246268 0.018735187 0.049259152
0.03306865 0.1404749 0.045672696 -0.2276695 0.03650261 -0.08886214 0.13283075 0.06849267
0.06246349 -0.27412263 -0.09807884 -0.033026136 0.12482059 -0.14072093 -0.0767817 -0.11843791
-0.2430202 -0.05405728 0.042938523 0.15001571 -0.0060924403 -0.07428637 0.0053090868 -0.05732787
-0.30206707 -0.5081471 -0.31697926 0.28985366 -0.19614644 0.008520025 -0.50997674 0.65381324
0.09172612 0.8899143 -0.043486714 0.13057661 0.029425906 -0.23314886 0.2849859 -0.0016076808
-0.11551669 -0.25747803 0.03882187 0.2602683 -0.030824631 0.13707602 0.019902399 -0.033996243
-0.095484175 -0.14384826 0.17610669 0.32594076 0.1008207 0.024182575 0.13915738 0.18236105
0.010556568 0.03326834 -0.04720547 -0.040287055 -0.18023486 -0.012583345 -0.042512476 0.10255984
-0.11449594 0.16508572 0.1412731 0.21727121 -0.086101465 -0.16076216 0.26906386 -0.34938613
-0.16221419 0.07727556 -0.14000495 0.05409383 -0.1954581 0.0051207603 -0.07546132 0.1926293
00000000: 603a 753d 829e 3dbf 825f 1a3f 5c70 123f
00000010: 3387 8bbe 2601 14be de90 66be d314 253e
00000020: f565 1e3f 8102 d33d 6d1c f43d 4eef c33e
00000030: e3bc f93e b78f 32bf 56ef 1b3f bc21 033f
00000040: 7d01 e5be e3a0 29bf 96c3 643e c4d1 b33e
00000050: 1581 e03d 5fc4 e8bd 2cb0 563e 93d2 80be
00000060: bdc2 fcbd 7c37 5f3d 39d4 51bd d80a 8fbc
00000070: 5f3e 993d 48dc cd3d 759d 273e 7445 bbbc
00000080: 4650 04be fc57 67bd da39 573c aa27 2b3e
00000090: 954d 42be 6385 dbbb 8a80 363e c0e0 febc
000000a0: dd0f 323e 7879 233e 0f61 e23c ba03 233d
000000b0: d469 c1bd f168 8e3b 1661 a6bd 6032 a8be
000000c0: 4595 743c ca58 323e 55bf 163d 56ea 7bbd
000000d0: d1f2 89bd 6c2b ee3d e088 c4bd 42cf cd3d
000000e0: 9ba7 103e 1a30 c9bd 87d2 243d f3fb 143e
000000f0: f0e1 d8bd 8d98 41bd 8463 9fbe 204d 04be
00000100: 4584 08bd abf2 493d 7c0c 973c 2130 503e
00000110: c019 5ebe be8c 473d 9258 353d 0e0b 0f3d
00000120: 8b89 8fbe f9c4 21be 34df 0fbd a77e e83d
00000130: 8854 2dbe 4883 823c 0a73 2b3d cba1 abbe
00000140: f893 933e 836e 983c 988a 66bc f6dc 98be
00000150: 6108 463d 7f48 883e 4e3f 1f3e 7f43 823a
00000160: 3384 83bd d141 0abd 782e 373d cfb7 5c3c
00000170: 529f 4bbe 6728 a4bc 1984 b33d 9c95 193e
00000180: 3afd d8bd e1e9 103d f56e a8be 81a0 b53a
00000190: f37b f8bd 2e1b 9cbe f24b bcbe 0df6 65be
000001a0: db9b 1abe a98f 36bf ee23 2fbf a77e b73e
000001b0: 9cc1 383e 285c 343e 7714 6a3e d62f b6bc
000001c0: 82cb 5fbd e233 0ebe 7e3c da3d 120a 00bd
000001d0: e840 4abe 452d 60be af75 c93d 030b 023e
000001e0: ecaa 3fbd b5f3 0b3b bb77 0bbc 4def f83d
000001f0: 8453 f0bc 2d6e a83d 3755 07be 2423 efbd
00000200: 1cc7 cabd 930a a73d 7d61 d7bd 8bf1 35be
00000210: 50de 86bd 5a08 b8bb 53c7 c13d 64ed 07bd
00000220: ecd6 17be 0127 67be 2123 d73d 9752 1cbe
00000230: 967c 683e e0e5 3dbd 52dc d1bd 7db2 febd
00000240: e3ee ca3d 5ab4 663d ca8e 5abe 01b3 25be
00000250: c012 643c f0c9 8d3d 9b7e 543d b1ac e8bd
00000260: d3b1 673d 5731 ae3d 0e91 083e 40b6 b6bd
00000270: f938 1abd 6355 01be 1984 e5bd 9127 dd3c
00000280: 8c9d edbc d6cf c23d cbc8 8a3d d2f7 ddbc
00000290: 8615 353a a47e 0b3d 7095 213e 0321 0ebe
000002a0: 0b9c e1bc 7783 723d 2fd8 723c 66fd 83be
000002b0: 1a32 8ebe 32e2 a8bd 897a 993c f7c3 493d
000002c0: fe72 073d a7d8 0f3e 4b13 3b3d 3222 69be
000002d0: c383 153d 5bfd b5bd c904 083e e345 8c3d
000002e0: b7d9 7f3d cd59 8cbe 8fdd c8bd 6a46 07bd
000002f0: f0a1 ff3d 2619 10be b93f 9dbd 938f f2bd
00000300: 4ada 78be 2b6b 5dbd 4ee0 2f3d b89d 193e
00000310: 18a3 c7bb 7423 98bd d9f7 ad3b a1d0 6abd
00000320: 89a8 9abe ee15 02bf 1b4b a2be b367 943e
00000330: 9dda 48be 9397 0b3c d68d 02bf 4e60 273f
00000340: e7da bb3d 6cd1 633f 201f 32bd e0b5 053e
00000350: 990e f13c 93be 6ebe ace9 913e d1b8 d2ba
00000360: 0494 ecbd 29d4 83be ae03 1f3d e341 853e
00000370: f083 fcbc a85d 0c3e 5b0a a33c a53f 0bbd
00000380: 358d c3bd f54c 13be 5055 343e b5e1 a63e
00000390: 157b ce3d 891a c63c 467f 0e3e dbbc 3a3e
000003a0: 75f5 2c3c 6244 083d 865a 41bd 0a04 25bd
000003b0: 7d8f 38be 602a 4ebc 9021 2ebd e50a d23d
000003c0: d97c eabd 3b0c 293e e5a9 103e 587c 5e3e
000003d0: f755 b0bd d69e 24be bdc2 893e bde2 b2be
000003e0: 7a1b 26be a642 9e3d 755d 0fbe 7e91 5d3d
000003f0: 2b26 48be 0dcc a73b 778b 9abd 9d40 453e

model_8/dense_18/MatMul f4 [507, 50]
-1.2578723 -2.7232728 -2.59944 -1.2382133 -0.46556193 -5.5215545 -1.111267 -1.5857106
-0.43100294 -2.452885 -0.78855073 -0.5011 -0.697463 -0.7989409 -0.60736626 -1.1555966
-0.2208334 -1.6637735 -1.5485791 -1.0524902 -3.7570806 -1.1347448 -1.3624426 -0.4884294
-0.26397923 -2.3196738 -9.499454 -1.3614721 -1.2088488 -2.5902853 -2.795904 -0.6970008
-0.85629964 -3.5026367 -0.7044765 -1.2723846 -1.3734213 -4.0683413 -2.3251994 -0.40607062
-1.6155893 -0.3795116 -1.683667 -0.7361202 -5.2597637 -1.2878256 -1.0833437 -3.495549
-8.945705 -5.501236 -0.8889406 -4.164928 -2.1894786 -2.6900165 -0.3217483 -3.732467
-0.8016088 -1.8381 -0.25919572 -2.0892315 -0.4962462 -0.25677872 -0.20059703 -0.6227923
-0.27278584 -1.3916372 -0.5317358 -1.5258876 -0.9872543 -1.1548556 -3.4687304 -1.4012786
-1.7417077 -1.486663 -0.25995082 -1.679519 -9.178686 -2.2352476 -1.5422541 -1.3620872
-2.4482527 -0.8241673 -0.33639422 -2.28906 -0.18536627 -0.8167268 -1.8525954 -4.371091
-2.6611755 -0.29633048 -1.5996805 -0.23720159 -0.8372015 -0.72598433 -5.0533643 -1.3223786
-0.43941253 -4.0817637 -10.268722 -6.673543 -1.232809 -2.7906234 -2.589844 -1.4873109
-0.4244639 -5.9325767 -1.0768528 -1.6770194 -0.42569897 -2.1231277 -0.9319133 -0.6131632
-0.6730647 -0.64646673 -0.7094669 -1.2647024 -0.23737064 -1.4412792 -0.9200887 -1.3519495
-3.7440498 -1.0245758 -1.023329 -1.7608545 -0.20813106 -2.2714202 -4.9622784 -2.399274
-1.0519615 -2.758648 -2.6807907 -0.7116345 -0.8203449 -3.400061 -0.6100868 -1.2411784
-1.4528447 -4.133418 -2.443835 -0.42742276 -1.597814 -0.46407884 -1.6259017 -0.7823713
-5.671634 -1.2539513 -1.1508943 -3.7390058 -10.718073 -1.1599418 -1.2567058 -1.0476587
-4.36364 -1.7570167 -0.37249768 -0.3498586 0.23636074 -2.6098723 -0.3857064 -0.01069919
-0.15161023 -0.28063634 -1.7628074 -0.92064625 -1.4555761 -0.9076786 -0.5051009 0.07465738
-1.3266133 -1.040782 -5.2991467 0.1191657 -3.7537732 -1.092898 -0.5248123 -3.220418
-5.9293513 0.22940445 -0.6890051 -0.4146129 -4.217587 -0.770343 -0.7604521 -0.4932259
-0.021925319 -1.310995 -1.5863315 -3.3777559 -0.44626468 -0.59154475 0.20665285 -0.275765
0.01048098 -3.5252352 -5.814985 -2.2363656 -0.1654658 -1.2282184 -6.088367 -0.65368485
-1.1527262 -1.49591 -2.9183984 -0.92128724 -0.37839872 -4.16866 -1.5886644 -1.6321424
-0.5230036 -2.9275854 -0.9934398 -0.7181452 -0.8193294 -0.63013244 -0.68196964 -0.912024
-0.20885305 -1.1695882 -1.361098 -1.2569681 -3.8848517 -1.6904459 -1.3167121 -1.9351821
-0.13266447 -2.6364062 -6.800416 -2.2436943 -0.70376486 -1.4579136 -3.092261 -0.47764555
-0.4820417 -4.0871005 -0.7152277 -1.0737026 -0.64723265 -4.3867927 -2.440487 -0.3669654
-1.6425507 -0.62984574 -1.6051621 -1.0356573 -5.541765 -1.1791068 -0.8905697 -3.6472015
-10.014475 -3.6896844 -0.98403996 -1.249853 -2.5751636 -0.7637571 -0.3971747 -5.5528145
00000000: f601 a1bf 1a4a 2ec0 3a5d 26c0 c67d 9ebf
00000010: 225e eebe 93b0 b0c0 ff3d 8ebf 91f8 cabf
00000020: 6bac dcbe 11fc 1cc0 76de 49bf 1748 00bf
00000030: ef8c 32bf 6487 4cbf 5b7c 1bbf 97ea 93bf
00000040: 2722 62be 88f6 d4bf d737 c6bf 00b8 86bf
00000050: 0274 70c0 513f 91bf 8564 aebf 6b13 fabe
00000060: 4928 87be 8975 14c0 c3fd 17c1 b844 aebf
00000070: 8fbb 9abf 3cc7 25c0 17f0 32c0 a56e 32bf
00000080: 7436 5bbf 332b 60c0 9258 34bf 80dd a2bf
00000090: 45cc afbf da2f 82c0 11d0 14c0 7de8 cfbe
000000a0: a1cb cebf 584f c2be 6682 d7bf 6072 3cbf
000000b0: fc4f a8c0 78d7 a4bf 02ab 8abf 13b7 5fc0
000000c0: 9c21 0fc1 200a b0c0 9c91 63bf 1747 85c0
000000d0: 6b20 0cc0 3b29 2cc0 31bc a4be bde0 6ec0
000000e0: 3c36 4dbf dc46 ebbf 4db5 84be f8b5 05c0
000000f0: fb13 febe 8078 83be 4f69 4dbe 516f 1fbf
00000100: 96aa 8bbe 2b21 b2bf d61f 08bf 4950 c3bf
00000110: b3bc 7cbf 4fd2 93bf aeff 5dc0 195d b3bf
00000120: 47f0 debf f94a bebf 4618 85be 7bfa d6bf
00000130: e6db 12c1 4c0e 0fc0 9568 c5bf e058 aebf
00000140: 2cb0 1cc0 a1fc 52bf dd3b acbe f67f 12c0
00000150: a8d0 3dbe 0215 51bf d921 edbf fadf 8bc0
00000160: b350 2ac0 a1b8 97be 55c2 ccbf f9e4 72be
00000170: d652 56bf 1cda 39bf 29b5 a1c0 b443 a9bf
00000180: aefa e0be cf9d 82c0 af4c 24c1 aa8d d5c0
00000190: afcc 9dbf 9399 32c0 01c0 25c0 3460 bebf
000001a0: 5553 d9be abd7 bdc0 50d6 89bf 92a8 d6bf
000001b0: 37f5 d9be 53e1 07c0 df91 6ebf 43f8 1cbf
000001c0: f84d 2cbf d87e 25bf 9f9f 35bf c5e1 a1bf
000001d0: 4a11 73be d67b b8bf ef8a 6bbf ae0c adbf
000001e0: 839e 6fc0 4d25 83bf 72fc 82bf ae63 e1bf
000001f0: 4f20 55be f35e 11c0 fcca 9ec0 b58d 19c0
00000200: ada6 86bf b08d 30c0 1392 2bc0 ae2d 36bf
00000210: 2002 52bf 999a 59c0 a62e 1cbf efde 9ebf
00000220: d1f6 b9bf f644 84c0 cb67 1cc0 28d7 dabe
00000230: 2b85 ccbf be9b edbe 8c1d d0bf 7c49 48bf
00000240: 077e b5c0 7a81 a0bf 8150 93bf df4b 6fc0
00000250: 3a7d 2bc1 f978 94bf bcdb a0bf ae19 86bf
00000260: f0a2 8bc0 ece5 e0bf 04b8 bebe ab20 b3be
00000270: 8d08 723e 2608 27c0 4f7b c5be a84b 2fbc
00000280: b63f 1bbe 91af 8fbe aca3 e1bf 79af 6bbf
00000290: 5150 babf a05d 68bf 4b4e 01bf f8e5 983d
000002a0: 77ce a9bf 5838 85bf 9c92 a9c0 260d f43d
000002b0: d23d 70c0 15e4 8bbf 195a 06bf 541b 4ec0
000002c0: 3fbd bdc0 00e9 6a3e a362 30bf 2448 d4be
000002d0: 79f6 86c0 3335 45bf fdac 42bf 1b88 fcbe
000002e0: ba9c b3bc afce a7bf e90c cbbf 272d 58c0
000002f0: ce7c e4be 7a6f 17bf ce9c 533e 1231 8dbe
00000300: 6bb8 2b3c 749d 61c0 5b14 bac0 9d20 0fc0
00000310: de6f 29be 4336 9dbf e7d3 c2c0 e457 27bf
00000320: 888c 93bf fb79 bfbf 0ac7 3ac0 7bd9 6bbf
00000330: 7abd c1be aa65 85c0 5b59 cbbf 0bea d0bf
00000340: 90e3 05bf 8f5d 3bc0 1252 7ebf 5dd8 37bf
00000350: 92bf 51bf 5c50 21bf 9095 2ebf 687a 69bf
00000360: 93dd 55be 11b5 95bf 7638 aebf 55e4 a0bf
00000370: 69a1 78c0 8860 d8bf 068a a8bf 0cb4 f7bf
00000380: 32d9 07be e1ba 28c0 029d d9c0 b098 0fc0
00000390: ef29 34bf ea9c babf 9be7 45c0 f58d f4be
000003a0: 2bce f6be 87c9 82c0 2a19 37bf 166f 89bf
000003b0: 0ab1 25bf 9b60 8cc0 f030 1cc0 e4e2 bbbe
000003c0: 1a3f d2bf 923d 21bf f475 cdbf 6b90 84bf
000003d0: 2456 b1c0 f9ec 96bf 60fc 63bf c06b 69c0
000003e0: 4a3b 20c1 ca23 6cc0 0bea 7bbf 2ffb 9fbf
000003f0: 7bcf 24c0 9685 43bf 7b5a cbbe a8b0 b1c0
